==========================================================================================
Layer (type:depth-idx)                   Output Shape              Param #
==========================================================================================
AlexNet                                  [1, 10]                   --
├─Sequential: 1-1                        [1, 256, 5, 5]            --
│    └─Conv2d: 2-1                       [1, 96, 54, 54]           11,712
│    └─ReLU: 2-2                         [1, 96, 54, 54]           --
│    └─MaxPool2d: 2-3                    [1, 96, 26, 26]           --
│    └─Conv2d: 2-4                       [1, 256, 26, 26]          614,656
│    └─ReLU: 2-5                         [1, 256, 26, 26]          --
│    └─MaxPool2d: 2-6                    [1, 256, 12, 12]          --
│    └─Conv2d: 2-7                       [1, 384, 12, 12]          885,120
│    └─ReLU: 2-8                         [1, 384, 12, 12]          --
│    └─Conv2d: 2-9                       [1, 384, 12, 12]          1,327,488
│    └─ReLU: 2-10                        [1, 384, 12, 12]          --
│    └─Conv2d: 2-11                      [1, 256, 12, 12]          884,992
│    └─ReLU: 2-12                        [1, 256, 12, 12]          --
│    └─MaxPool2d: 2-13                   [1, 256, 5, 5]            --
├─Sequential: 1-2                        [1, 10]                   --
│    └─Dropout: 2-14                     [1, 6400]                 --
│    └─Linear: 2-15                      [1, 4096]                 26,218,496
│    └─ReLU: 2-16                        [1, 4096]                 --
│    └─Dropout: 2-17                     [1, 4096]                 --
│    └─Linear: 2-18                      [1, 4096]                 16,781,312
│    └─ReLU: 2-19                        [1, 4096]                 --
│    └─Linear: 2-20                      [1, 10]                   40,970
==========================================================================================
Total params: 46,764,746
Trainable params: 46,764,746
Non-trainable params: 0
Total mult-adds (M): 938.75
==========================================================================================
Input size (MB): 0.20
Forward/backward pass size (MB): 4.87
Params size (MB): 187.06
Estimated Total Size (MB): 192.13
…
