==========================================================================================
Layer (type:depth-idx)                   Output Shape              Param #
==========================================================================================
VGG                                      [1, 10]                   --
├─Sequential: 1-1                        [1, 512, 7, 7]            --
│    └─Conv2d: 2-1                       [1, 64, 224, 224]         640
│    └─ReLU: 2-2                         [1, 64, 224, 224]         --
│    └─Conv2d: 2-3                       [1, 64, 224, 224]         36,928
│    └─ReLU: 2-4                         [1, 64, 224, 224]         --
│    └─MaxPool2d: 2-5                    [1, 64, 112, 112]         --
│    └─Conv2d: 2-6                       [1, 128, 112, 112]        73,856
│    └─ReLU: 2-7                         [1, 128, 112, 112]        --
│    └─Conv2d: 2-8                       [1, 128, 112, 112]        147,584
│    └─ReLU: 2-9                         [1, 128, 112, 112]        --
│    └─MaxPool2d: 2-10                   [1, 128, 56, 56]          --
│    └─Conv2d: 2-11                      [1, 256, 56, 56]          295,168
│    └─ReLU: 2-12                        [1, 256, 56, 56]          --
│    └─Conv2d: 2-13                      [1, 256, 56, 56]          590,080
│    └─ReLU: 2-14                        [1, 256, 56, 56]          --
│    └─Conv2d: 2-15                      [1, 256, 56, 56]          590,080
│    └─ReLU: 2-16                        [1, 256, 56, 56]          --
│    └─Conv2d: 2-17                      [1, 256, 56, 56]          590,080
│    └─ReLU: 2-18                        [1, 256, 56, 56]          --
│    └─MaxPool2d: 2-19                   [1, 256, 28, 28]          --
│    └─Conv2d: 2-20                      [1, 512, 28, 28]          1,180,160
│    └─ReLU: 2-21                        [1, 512, 28, 28]          --
│    └─Conv2d: 2-22                      [1, 512, 28, 28]          2,359,808
│    └─ReLU: 2-23                        [1, 512, 28, 28]          --
│    └─Conv2d: 2-24                      [1, 512, 28, 28]          2,359,808
│    └─ReLU: 2-25                        [1, 512, 28, 28]          --
│    └─Conv2d: 2-26                      [1, 512, 28, 28]          2,359,808
│    └─ReLU: 2-27                        [1, 512, 28, 28]          --
│    └─MaxPool2d: 2-28                   [1, 512, 14, 14]          --
│    └─Conv2d: 2-29                      [1, 512, 14, 14]          2,359,808
│    └─ReLU: 2-30                        [1, 512, 14, 14]          --
│    └─Conv2d: 2-31                      [1, 512, 14, 14]          2,359,808
│    └─ReLU: 2-32                        [1, 512, 14, 14]          --
│    └─Conv2d: 2-33                      [1, 512, 14, 14]          2,359,808
│    └─ReLU: 2-34                        [1, 512, 14, 14]          --
│    └─Conv2d: 2-35                      [1, 512, 14, 14]          2,359,808
│    └─ReLU: 2-36                        [1, 512, 14, 14]          --
│    └─MaxPool2d: 2-37                   [1, 512, 7, 7]            --
├─Sequential: 1-2                        [1, 10]                   --
│    └─Linear: 2-38                      [1, 4096]                 102,764,544
│    └─ReLU: 2-39                        [1, 4096]                 --
│    └─Dropout: 2-40                     [1, 4096]                 --
│    └─Linear: 2-41                      [1, 4096]                 16,781,312
│    └─ReLU: 2-42                        [1, 4096]                 --
│    └─Dropout: 2-43                     [1, 4096]                 --
│    └─Linear: 2-44                      [1, 10]                   40,970
==========================================================================================
Total params: 139,610,058
Trainable params: 139,610,058
Non-trainable params: 0
Total mult-adds (G): 19.59
==========================================================================================
Input size (MB): 0.20
Forward/backward pass size (MB): 118.88
Params size (MB): 558.44
Estimated Total Size (MB): 677.52
…
